…
          "base_uri": "https://localhost:8080/"
        },
        "id": "vbaMOa5kT-X3",
        "outputId": "8fbbdd73-083c-4b0c-8d7d-964ec6e1777a"
      },
      "execution_count": 55,
      "outputs": [
        {
          "output_type": "stream",
          "name": "stdout",
          "text": [
            "Model: \"sequential_5\"\n",
            "_________________________________________________________________\n",
            " Layer (type)                Output Shape              Param #   \n",
            "=================================================================\n",
            " conv2d_22 (Conv2D)          (None, 300, 300, 32)      896       \n",
            "                                                                 \n",
            " conv2d_23 (Conv2D)          (None, 300, 300, 32)      9248      \n",
            "                                                                 \n",
            " max_pooling2d_13 (MaxPoolin  (None, 150, 150, 32)     0         \n",
            " g2D)                                                            \n",
            "                                                                 \n",
            " conv2d_24 (Conv2D)          (None, 150, 150, 64)      18496     \n",
            "                                                                 \n",
            " max_pooling2d_14 (MaxPoolin  (None, 75, 75, 64)       0         \n",
            " g2D)                                                            \n",
            "                                                                 \n",
            " conv2d_25 (Conv2D)          (None, 75, 75, 128)       73856     \n",
            "                                                                 \n",
            " max_pooling2d_15 (MaxPoolin  (None, 37, 37, 128)      0         \n",
            " g2D)                                                            \n",
            "                                                                 \n",
            " conv2d_26 (Conv2D)          (None, 37, 37, 256)       295168    \n",
            "                                                                 \n",
            " flatten_4 (Flatten)         (None, 350464)            0         \n",
            "                                                                 \n",
            " dense_7 (Dense)             (None, 512)               179438080 \n",
            "                                                                 \n",
            " dropout_3 (Dropout)         (None, 512)               0         \n",
            "                                                                 \n",
            " dense_8 (Dense)             (None, 1)                 513       \n",
            "                                                                 \n",
            "=================================================================\n",
            "Total params: 179,836,257\n",
            "Trainable params: 179,836,257\n",
            "Non-trainable params: 0\n",
            "_________________________________________________________________\n"
          ]
…
